ch4_hello_world/sine_model/sine_model_quantized.tflite (tflite, 2720 bytes, 5 tensors)

sequential_1/dense_2/MatMul/ReadVariableOp/transpose f4 [16, 1]
-0.19592184 0.35746303 0.26153404 0.22623107 -0.40446454 -0.579387 -0.31400502 -0.20645645
0.16645247 0.03268633 -0.010593653 -0.33215997 -0.40526906 0.14452356 -0.28487486 0.48065332
00000000: bc9f 48be 6505 b73e cae7 853e 1ea9 673e
00000010: fa15 cfbe b552 14bf 44c5 a0be 5269 53be
00000020: 8472 2a3e 1ae2 053d 0091 2dbc df10 aabe
00000030: 6d7f cfbe fcfd 133e 1edb 91be 3118 f63e

sequential_1/dense_2/MatMul_bias f4 [16]
0.0 0.5088451 -0.0019942676 -0.24748966 0.0 0.0 0.0 0.0
-0.43388155 -0.016262192 0.0 0.0 0.0 -0.32904017 0.0 -0.9312448
00000000: 0000 0000 ac43 023f 42b2 02bb ee6d 7dbe
00000010: 0000 0000 0000 0000 0000 0000 0000 0000
00000020: b925 debe 4a38 85bc 0000 0000 0000 0000
00000030: 0000 0000 f477 a8be 0000 0000 0f66 6ebf

sequential_1/dense_3/MatMul/ReadVariableOp/transpose f4 [16, 16]
-0.15661019 0.17691603 -0.24916221 0.0024586227 0.1871582 0.119012564 0.19928816 0.02038306
-0.18106829 -0.14944193 0.03268999 -0.363423 -0.4037244 -0.07884237 -0.22670175 -0.23744543
0.15164259 0.1982118 0.36336213 0.28797927 -0.08783388 -0.36900568 -0.017748505 -0.28390586
0.15607786 -0.007471682 0.18584523 0.01225099 -0.088223696 -0.23181655 -0.1829252 -0.50357383
0.28069744 -0.010850094 0.40194133 -0.17164981 0.3152996 -0.3970858 -0.17911354 0.19559595
0.396129 -0.11048721 -0.16812786 -0.3527339 -0.117991626 0.1215405 -0.2226707 0.51364696
0.16368553 -0.46150655 -0.5225032 -0.043577056 -0.28511375 -0.22390997 -0.011953026 -0.10633686
-0.45033956 0.49740753 0.26896194 -0.15255302 0.41032144 -0.26818722 -0.27650028 -0.59201014
-0.36878228 0.3452135 -0.25418016 -0.22364281 0.19050452 0.2782295 -0.24306212 0.32602534
-0.05854978 0.00667274 -0.37001836 0.41008696 -0.13192561 0.09141432 0.14153686 0.14764255
0.011072099 0.04424856 0.14348616 -0.30632326 0.20912376 0.36801335 -0.3639785 -0.29585993
-0.18648842 0.08517538 -0.14018291 0.42060462 0.18921623 0.088353425 -0.3202128 0.12663482
-0.23208314 -0.16950081 0.0454065 -0.1686372 0.29922703 0.08850339 -0.21740288 -0.42577508
0.17241727 0.12559442 -0.13716072 0.42276672 -0.042396247 0.39058205 0.30400595 0.57974064
0.16366073 0.3694118 0.048473977 -0.6432626 0.3987731 -0.37104836 0.25303987 0.12932196
-0.73577046 0.40422606 -0.26666972 0.3498967 0.35150072 -1.0763651 -0.33332777 -0.46675816
0.07408926 0.39465794 0.047429215 0.17772485 -0.077638894 -0.3463683 -0.058942974 0.28876063
-0.33368087 -0.17831166 -0.39089066 0.17627493 -0.34892946 -0.06699479 -0.38018277 -0.030251592
-0.2975198 0.08226815 0.14881733 0.26770508 -0.3071041 0.098997146 -0.20765428 0.027734548
0.2601013 0.19818592 -0.36406067 0.032913715 -0.25793523 0.40260455 -0.24667184 -0.17924263
0.3002387 -0.08862358 -1.0815388 -0.34355116 0.3507742 0.13886663 -0.25241065 -0.42670113
0.30286297 -0.15750349 -0.15647587 -0.035116613 -0.21084166 0.21833709 0.34023532 -0.59967536
0.32142934 -0.018926352 -0.20046353 -0.33070582 -0.038141787 0.15656981 0.112638205 0.4067302
-0.08348775 -0.0916917 0.41263965 0.17782089 0.1402941 0.32760587 0.24150589 -0.31509146
0.21583572 -0.28135937 -0.093737364 -0.38716283 -0.1358372 -0.11778259 0.064424306 -0.36029774
0.061157316 -0.07412219 -0.1409666 -0.122552514 -0.11736974 0.15344492 -0.18774179 0.32232204
-0.17891553 -0.16897959 0.013538659 -0.15069598 -0.24574219 0.35116777 0.0024554133 -0.42267174
-0.10164067 -0.12685215 -0.19134986 -0.09703252 -0.37560025 -0.12906611 -0.05524817 -0.3868751
0.2808459 0.06223387 0.017337948 -0.007223129 -0.15569592 -0.13017726 -0.34563327 0.310667
0.39925143 -0.2506304 0.3586175 0.16282979 -0.058811754 0.33836427 0.13982788 -0.29704022
-0.23939861 -0.36457264 -0.014474839 0.35817042 -0.16858459 -0.3265699 -0.31403586 -0.044665515
0.35777953 -0.17078254 0.14066568 -0.26366168 0.09957293 -0.35964385 0.029199392 -0.18723293
00000000: 6c5e 20be 7a29 353e 6124 7fbe d820 213b
00000010: 66a6 3f3e dcbc f33d 3212 4c3e 60fa a63c
00000020: f769 39be 4e07 19be f0e5 053d 9412 babe
00000030: f7b4 cebe 1c78 a1bd 8124 68be e524 73be
00000040: 3248 1b3e 09f8 4a3e 9a0a ba3e 0572 933e
00000050: 40e2 b3bd 50ee bcbe 5065 91bc 1c5c 91be
00000060: e0d2 1f3e 03d5 f4bb 364e 3e3e 60b8 483c
00000070: a0ae b4bd 5161 6dbe be50 3bbe 37ea 00bf
00000080: 93b7 8f3e 98c4 31bc 41cb cd3e f8c4 2fbe
00000090: f36e a13e d44e cbbe 8a69 37be 4e4a 483e
000000a0: 6cd1 ca3e 1e47 e2bd b629 2cbe 8a99 b4be
000000b0: 98a5 f1bd 3aea f83d ca03 64be 5e7e 033f
000000c0: 2e9d 273e 964a ecbe c5c2 05bf db7d 32bd
000000d0: 6efa 91be a848 65be a0d6 43bc 24c7 d9bd
000000e0: e892 e6be 33ac fe3e 61b5 893e dc36 1cbe
000000f0: a715 d23e d64f 89be 7291 8dbe fa8d 17bf
00000100: 08d1 bcbe d3bf b03e e723 82be 9f02 65be
00000110: 9e13 433e 1974 8e3e 47e5 78be cbec a63e
00000120: e5d1 6fbd 00a7 da3b 0c73 bdbe ebf6 d13e
00000130: 8217 07be 6e37 bb3d 0aef 103e 9c2f 173e
00000140: c067 353c fa3d 353d 09ee 123e 67d6 9cbe
00000150: 8a24 563e 3f6c bc3e 645b babe f47a 97be
00000160: d2f6 3ebe 6e70 ae3d 1c8c 0fbe 7d59 d73e
00000170: e6c1 413e a4f2 b43d eff2 a3be 8fac 013e
00000180: 34a7 6dbe 9f91 2dbe 2bfc 393d 3baf 2cbe
00000190: 4934 993e 4441 b53d dc9e 5ebe 31ff d9be
000001a0: 278e 303e d39b 003e dc73 0cbe e174 d83e
000001b0: b0a7 2dbd 5ffa c73e aba6 9b3e e269 143f
000001c0: ae96 273e 8b23 bd3e a68c 463d dcac 24bf
000001d0: fd2b cc3e 0dfa bdbe 718e 813e fa6c 043e
000001e0: 745b 3cbf b8f6 ce3e ef88 88be a925 b33e
000001f0: e7f7 b33e 55c6 89bf f0a9 aabe edfa eebe
00000200: 1cbc 973d 9b10 ca3e 2345 423d 81fd 353e
00000210: 2401 9fbd 3057 b1be 306e 71bd 6fd8 933e
00000220: 38d8 aabe 5597 36be d222 c8be 6a81 343e
00000230: e2a6 b2be 9134 89bd 51a7 c2be 30d2 f7bc
00000240: 8454 98be 347c a83d 9263 183e a410 893e
00000250: c03c 9dbe 04bf ca3d 53a3 54be 9033 e33c
00000260: ff2b 853e 40f1 4a3e 2966 babe 88d0 063d
00000270: 1610 84be 2f22 ce3e 8b97 7cbe 618b 37be
00000280: e3b8 993e 4880 b5bd dd6f 8abf f0e5 afbe
00000290: ad98 b33e 0e33 0e3e f83b 81be 9278 dabe
000002a0: db10 9b3e 9848 21be 363b 20be 70d6 0fbd
000002b0: e0e6 57be c293 5f3e 5333 ae3e 5384 19bf
000002c0: 6392 a43e 700b 9bbc 5046 4dbe 4652 a9be
000002d0: 903a 1cbd d653 203e dcae e63d f13e d03e
000002e0: a0fb aabd dcc8 bbbd 8145 d33e ae16 363e
000002f0: 42a9 0f3e f5bb a73e 524d 773e ab53 a1be
00000300: 0a04 5d3e 560e 90be 60f9 bfbd 353a c6be
00000310: e818 0bbe 0038 f1bd e4f0 833d f278 b8be
00000320: 1880 7a3d 60cd 97bd 8c59 10be d0fc fabd
00000330: 8c5f f0bd aa20 1d3e 623f 40be 6507 a53e
00000340: a235 37be fc08 2dbe 40d1 5d3c 0c50 1abe
00000350: d7a3 7bbe 43cc b33e 00eb 203b 6e68 d8be
00000360: fc28 d0bd 88e5 01be 38f1 43be fcb8 c6bd
00000370: ad4e c0be e829 04be e84b 62bd 7e14 c6be
00000380: 09cb 8f3e f1e8 7e3d 5008 8e3c ffaf ecbb
00000390: c06e 1fbe 304d 05be d8f6 b0be bf0f 9f3e
000003a0: af6a cc3e a152 80be b79c b73e dabc 263e
000003b0: 98e4 70bd 153e ad3e 0a2f 0f3e a815 98be
000003c0: e924 75be 44a9 babe e027 6dbc 1d62 b73e
000003d0: 70a1 2cbe 2c34 a7be 4fc9 a0be 30f3 36bd
000003e0: e12e b73e 9ee1 2ebe aa0a 103e aafe 86be
000003f0: e4ec cb3d 3d23 b8be 9033 ef3c fdb9 3fbe

sequential_1/dense_3/MatMul_bias f4 [16]
0.15268627 0.19787334 -0.32749966 0.651578 0.27477524 0.22595087 -0.67753476 0.61900437
0.16939634 -0.43048528 0.21984233 0.0 0.0 0.0 -0.07204142 0.0
00000000: ca59 1c3e 4f9f 4a3e 09ae a7be d1cd 263f
00000010: 57af 8c3e aa5f 673e eb72 2dbf 1277 1e3f
00000020: 3c76 2d3e 9168 dcbe 591e 613e 0000 0000
00000030: 0000 0000 0000 0000 748a 93bd 0000 0000

sequential_1/dense_4/MatMul/ReadVariableOp/transpose f4 [1, 16]
0.07995575 -0.33680543 0.32886687 -1.4865872 -0.4619381 -0.41759992 2.7247555 2.0017784
-0.2094892 0.19024533 -1.1055771 0.19579196 0.5612788 0.061403275 0.000115897856 0.5200703
00000000: d7bf a33d c371 acbe 3d61 a83e 7d48 bebf
00000010: 2783 ecbe a8cf d5be 6562 2e40 231d 0040
00000020: 5684 56be accf 423e 8d83 8dbf b07d 483e
00000030: f8af 0f3f 0082 7b3d 300e f338 5423 053f
